Image Classification/Models/tflite/model.tflite (tflite, 832132 bytes, 8 tensors)

arith.constant f4 [32]
000000 00 84 1d be cf 89 04 bd b9 88 35 be 4e 2b c9 bd
       -0.15382385 -0.032357987 -0.17727937 -0.09822713
000010 a3 e9 60 3d 59 ac 8f 3d e4 e5 8e bd f4 86 d7 bb
       0.054910313 0.070152946 -0.06977442 -0.006577367
000020 8b a2 1a 3c 81 04 6e 3d b0 a4 96 bd f2 a8 3b be
       0.009438167 0.058109764 -0.073556304 -0.18326166
000030 08 59 29 be fc a0 5f be 0e dd 7d 3d 8a 05 ad 3b
       -0.16537869 -0.21838754 0.061978392 0.0052802013
000040 0a ec f4 bb 20 d7 ce bd 10 0f dd bd 26 db 56 be
       -0.007474427 -0.100996256 -0.107938886 -0.20982036
000050 e0 10 f6 bd 0c a7 c5 bd dd 4e 1c be 36 d0 4c be
       -0.120149374 -0.09651002 -0.15264459 -0.20001301
000060 88 d3 34 be 0c fc 60 bd a2 03 ac bd 90 81 22 bd
       -0.17658818 -0.05492787 -0.083991304 -0.03967434
000070 13 98 cc 3d 4b 07 0b 3e 7c 1b 6d bd 9e f5 f4 bd
       0.09989943 0.13577001 -0.05788754 -0.1196091

arith.constant1 f4 [16]
000000 00 73 b7 bd e7 7f 1e be 46 ea 9e bd ff 52 41 3d
       -0.089574814 -0.15478478 -0.07759528 0.047198292
000010 6f 49 b7 bc 25 c3 24 be 51 5d 02 bd 33 36 2d 3d
       -0.022373883 -0.16090067 -0.031827275 0.042288017
000020 50 75 87 bd 2b 84 4b 3c 87 b3 d1 bd d6 f5 29 3e
       -0.066141725 0.012421648 -0.1023932 0.16597685
000030 31 a9 3c bd fb 80 9d bb 04 72 72 bd 54 0c 77 3d
       -0.04605979 -0.0048066354 -0.059190765 0.06031449

arith.constant2 f4 [32, 3, 3, 16]
000000 47 e9 b1 be 8e f1 ab be 26 4c 31 be 9f ab 6e ba
       -0.3474829 -0.3358273 -0.17314205 -0.0009104553
000010 ff c7 a6 be b7 70 84 bd 89 40 d3 3c e4 7f b0 be
       -0.3257446 -0.06466811 0.025787609 -0.34472573
000020 b2 75 00 3e cb 66 f4 bb 81 ef 09 3e 97 95 84 bc
       0.12544897 -0.007458543 0.1347027 -0.016184611
000030 d4 9d 91 be 23 cc 81 3e 0e e1 1f bd 59 b7 11 bf
       -0.28440726 0.25351056 -0.03903299 -0.5692039
000040 4f f1 35 bd b8 05 44 be 1d e5 3e be d0 0f ab be
       -0.044419583 -0.19142807 -0.18642087 -0.334105
000050 e6 f3 49 be 49 51 04 bd 60 f7 9b bd 6b 9a ac bd
       -0.19721946 -0.032304082 -0.076155424 -0.084278904
000060 c4 56 c7 3d 5a be 0f bc 03 c9 82 3c 28 a1 a3 3d
       0.09733346 -0.008773411 0.01596499 0.079897225
000070 24 a1 d2 bb df 47 a7 3e d0 6f 2f 3d 3b ec 03 be
       -0.006427901 0.3267202 0.042831242 -0.12883084
000080 2d aa e5 3b 5a 3d 81 bd a5 29 b0 bd 31 76 24 3d
       0.007008812 -0.0631053 -0.08601693 0.04015178
000090 36 c1 66 be 1c 80 6a bd 8b 97 17 3e ca 66 12 be
       -0.22534642 -0.05725108 0.14803903 -0.14297023
0000a0 93 32 83 3e c7 78 c1 3d 99 c7 5b be 7d 9d db 3d
       0.25624523 0.094468646 -0.21462859 0.10723398
0000b0 d8 e0 2f 3e 6d e8 22 be ee ed ed bd ae 07 8b be
       0.17175615 -0.15908976 -0.11617647 -0.27154297
0000c0 d8 1e f8 3d ca 37 10 be 0f f5 bb bc ff 9e c8 bd
       0.12115258 -0.14083782 -0.022944001 -0.09795951
0000d0 6b 42 58 be c4 24 16 bd 27 5b ad be 33 27 5b 3d
       -0.21119086 -0.036656156 -0.33858606 0.05350418
0000e0 4b bb 38 3d cc de 43 be a2 d2 71 3d b6 1d 91 be
       0.04510049 -0.19127959 0.059038766 -0.2834298
0000f0 61 65 ee bc 5f 48 45 3e 6c d3 30 be 6d 74 b4 be
       -0.029101076 0.19265889 -0.17268151 -0.35245076
000100 68 3b 32 3e b6 53 57 3e 1f 2c d0 3c 56 87 76 3d
       0.17405474 0.21028027 0.025411664 0.06018766
000110 9e 4b d5 3c 2f eb 76 bd 05 1a 6c be 37 4a 04 be
       0.026037034 -0.060282882 -0.230568 -0.12918936
000120 d9 d6 e3 bc 66 93 80 3e 41 75 20 3e f8 a6 c2 bd
       -0.027812408 0.25112456 0.15669729 -0.09504503
000130 c7 a4 a7 3d 9f 66 5d 3e 45 f7 a5 bc c1 8d 64 3d
       0.08185726 0.21621178 -0.020259509 0.05579925
000140 87 ba ce bc 77 e0 ea 3d 0b ca 48 3e c2 26 f3 3c
       -0.025235428 0.114685945 0.19608323 0.029681567
000150 b6 55 b1 bd 4b 0c 18 be 0f a5 6b bd 61 71 64 bb
       -0.08658926 -0.1484844 -0.05753046 -0.0034857618
000160 8b 0c ca 3d ba 0a 08 be 7f e7 35 be 22 42 72 3e
       0.09865674 -0.13285342 -0.1776409 0.2365804
000170 61 e9 b3 3d 0b b9 d0 bd b3 5a 39 3d a3 e1 c4 3d
       0.08784748 -0.10191544 0.045252513 0.09613349
000180 3f 9f 4b 3e 73 00 4e 3d ba f1 aa bd 40 e0 77 be
       0.19884966 0.050293397 -0.08346887 -0.24206638
000190 a5 9c 66 be e4 6c 62 bd 2b f3 b2 bd 48 ca 57 3d
       -0.22520693 -0.055279627 -0.08737787 0.052683145
0001a0 48 12 15 3e 3c 0b 87 be c3 4c 04 3e 31 b5 9d 3d
       0.14557755 -0.2637576 0.12919907 0.07700575
0001b0 6b 25 84 3d d0 91 62 be 84 9c a8 3d ba d7 b5 3b
       0.064524494 -0.22125936 0.08232978 0.0055493983
0001c0 8c 91 28 3e 49 e8 b2 3d 94 6f fa 3c 5b 96 44 be
       0.16461772 0.08735711 0.030570783 -0.19197981
0001d0 5e d2 66 3d ac 09 ed 3d 15 fb b7 3e bd e5 8c 3d
       0.056352966 0.115741104 0.35933748 0.068797566
0001e0 15 b5 ba 3c 23 e5 85 bd c6 42 40 3c 8d ab 70 3d
       0.022791425 -0.06537845 0.01173467 0.058757354
0001f0 7d 76 81 bb 6b 01 29 3e 5d 42 ce bd 81 5b f6 3d
       -0.0039508925 0.16504447 -0.100712515 0.12029172
000200 a5 44 d9 bd 24 1f 0b 3e 68 d7 10 3e 5e 10 c7 bd
       -0.10608796 0.13586098 0.14144671 -0.09719919
000210 93 3c 84 bd 44 05 2b be c8 b2 df 3e 53 9d 2c 3e
       -0.06456866 -0.16701227 0.43691087 0.1685689
000220 7a 7a f3 3c fa 92 ad 3d f9 31 96 bd dd be d9 3e
       0.029721487 0.08475299 -0.0733375 0.4252843
000230 53 30 a6 be bb 14 83 3d 10 83 02 3e 30 5a 64 3e
       -0.32458743 0.064004384 0.12745309 0.22300029
000240 0b 33 d4 bd 98 25 6b 3e c4 c5 38 3e da 4a 30 be
       -0.10361298 0.2296356 0.18044192 -0.17216054
000250 32 9d 09 3e 01 d1 17 3e e7 b3 f4 3d 08 9f 81 be
       0.13438872 0.14825822 0.11948376 -0.25316644
000260 0a 71 63 be b4 b3 d2 3c 3f 5f 21 3e 47 b9 78 3e
       -0.2221109 0.025720455 0.1575899 0.24289428
000270 a9 ca cc bd fb 3b ba 3d 27 41 2d 3c ce aa d2 3d
       -0.09999592 0.090934716 0.010574616 0.10286485
000280 68 49 a8 3d 2d ff 33 3d 7c 1e d8 bd 47 fb 35 3e
       0.08217126 0.043944526 -0.105526894 0.17771636
000290 cd 73 d3 bd e8 0f 54 bd 44 3a 0a bd e2 f0 27 3d
       -0.103248216 -0.051772982 -0.033746973 0.041001208
0002a0 46 fb 83 3d 20 0d 8f bb ba 58 a3 3c 3f 32 88 3d
       0.06444411 -0.0043655783 0.019939769 0.06650209
0002b0 c6 02 ac 3c 5a 4a 6a 3d 22 b7 1c 3c 91 f1 c8 bc
       0.020997416 0.057199813 0.009565147 -0.02452925
0002c0 fb ba 83 3e d2 4b 86 3c ee de 29 be 1a 79 ea 3d
       0.25728592 0.016393576 -0.16588947 0.114488795
0002d0 f1 7e 9d 3e a3 ed a7 3d 62 87 a9 3d 04 11 fe bd
       0.3076091 0.081996225 0.08277775 -0.12405589
0002e0 b3 80 31 3d 1f 88 f5 bc a6 17 38 3e e0 45 9d 3d
       0.043335628 -0.029972134 0.17977771 0.07679343
0002f0 69 56 5b be be 69 ed 3d c9 9a 08 3e 3f 97 fd bd
       -0.21419682 0.11592434 0.13340296 -0.123823635
000300 e0 77 c7 3c 55 6c c7 3d f5 7d a8 3d 5e ab ea 3c
       0.024349153 0.097374596 0.082271494 0.028646167
000310 3d c0 96 bd 88 db 7a bc c7 5d b0 bd e5 ed 8e be
       -0.07360885 -0.015311129 -0.086116366 -0.27915874
000320 7c b8 83 3d da c0 02 bf 9a 9f 8a 3d d5 ef d7 bd
       0.06431672 -0.5107552 0.06768723 -0.10543791
000330 99 ff 31 be ad 60 82 3c 28 e2 54 3d 59 fa a4 3c
       -0.17382659 0.01591524 0.051973492 0.020138906
000340 07 0a 49 be 84 9e 7b be e0 1b 2f bd 0b 16 87 3e
       -0.19632731 -0.24572188 -0.042751193 0.26384005
000350 e4 78 b0 be cb 56 15 be 55 e9 51 bd 27 6d 4e be
       -0.34467232 -0.1458389 -0.051247913 -0.20158826
000360 d5 10 a1 3d b3 52 64 3e 76 e9 66 be ed 04 33 be
       0.078645386 0.22297172 -0.22549996 -0.17482348
000370 5c 5c 24 be 15 23 ae 3d aa d6 84 3c 50 16 94 3c
       -0.16050857 0.08502785 0.016215641 0.018077046
000380 06 11 9c 3e 13 b6 c7 bb ed 56 72 be a6 e5 6e 3b
       0.30481738 -0.006094703 -0.23665972 0.00364528
000390 05 8d 7e 3d 89 c4 a7 3d 5a c0 03 3d 5a f4 5a be
       0.062146205 0.08191783 0.032165863 -0.21382275
0003a0 fe 03 15 be b7 4b a2 3d 57 31 e1 3c b1 12 1a 3e
       -0.14552304 0.07924598 0.027489347 0.15046193
0003b0 6c 06 cb 3c 87 f9 02 3d 1b e0 0d 3e 5f e1 2e 3a
       0.024783336 0.03197625 0.1385502 0.0006671156
0003c0 fb b3 dc 3c 0a 01 20 be c9 3d 73 3e 38 dc db bd
       0.02694129 -0.15625396 0.23754038 -0.10735363
0003d0 01 7f 97 bd 3c d3 80 3d 27 57 86 be 9e 6c 8d be
       -0.07397271 0.0629029 -0.26238367 -0.2762193
0003e0 ba f0 bb 3c 8f 1b 0f be fe 29 0b 3d c2 f6 ce be
       0.022941936 -0.13975357 0.033975594 -0.40422636
0003f0 a6 4a 5d 3d af 70 a6 bd 3f e3 8b be 02 02 fd 3c
       0.05402627 -0.081269614 -0.27321813 0.030884746

arith.constant3 f4 [16, 3, 3, 8]
000000 e0 6e a7 bd d0 bf f5 bd 10 81 3f 3d 55 1e 8e bd
       -0.081754446 -0.11999476 0.046753943 -0.06939379
000010 1f c8 14 be 02 c2 13 be 05 ba 44 3e 02 80 a7 be
       -0.14529465 -0.14429477 0.19211586 -0.3271485
000020 04 56 d2 3e 2b 38 4e be 5e 64 16 3c b7 a5 65 3d
       0.4108125 -0.20138614 0.009179203 0.05606624
000030 1b 4e 12 be 44 62 ff 3c b0 94 6d 3e ff b0 e6 bd
       -0.14287607 0.031174786 0.23201251 -0.11264228
000040 2e b4 79 3d e2 a6 9f be 68 a0 8a 3d fe 79 c1 3e
       0.06096285 -0.3118201 0.06768876 0.37788385
000050 ae d6 7b 3e 6d 85 26 be 39 80 b3 3e 3b d8 43 3e
       0.24593613 -0.16261835 0.35058764 0.19125454
000060 82 44 b4 bc 68 a3 88 be eb 53 88 be 59 cf 1e 3e
       -0.022005323 -0.2668717 -0.26626524 0.15508784
000070 ff d6 bb bb 97 8a 3e be f4 93 4b 3e 30 48 35 be
       -0.0057324166 -0.18607555 0.19880658 -0.17703319
000080 c7 cb 25 3e a6 66 73 be ec 76 67 be 28 34 5d 3e
       0.16191016 -0.23769626 -0.22603959 0.21601927
000090 26 66 ca 3d 66 e5 43 be d6 9a 64 3e e9 9e 61 3d
       0.098827645 -0.19130477 0.2232469 0.05508319
0000a0 fd 71 1a 3e 61 b3 87 be 0d 86 3a be 6b 41 ae 3d
       0.15082546 -0.26504043 -0.18215199 0.08508571
0000b0 59 37 f4 bc 60 b9 fa bd 96 fa 4e be 62 44 cb 3d
       -0.029811548 -0.12242389 -0.20212778 0.09925152
0000c0 fc 14 90 bc 6b 4e db be 43 5b 85 be 61 16 78 3d
       -0.017588131 -0.42833266 -0.2604619 0.060568217
0000d0 c1 4f 4c 3e 3c 34 28 be c4 eb 6e be 29 a1 ad bc
       0.19952299 -0.16426176 -0.23332125 -0.021195011
0000e0 77 77 7f bd 33 88 7e be eb dd 56 3e b1 cc 7b 3e
       -0.06236979 -0.24856643 0.20983092 0.24589802
0000f0 d9 b4 5b be 08 4a 0b 3e a4 8c 43 3e fa 1e 35 3d
       -0.21455707 0.1360246 0.19096619 0.044218995
000100 15 e0 3f 3d 5a 45 e0 be f2 60 21 3d 3d e7 a7 3e
       0.04684456 -0.4380291 0.039399095 0.32793608
000110 ce 78 9c 3b bc 5e fb bd 6a 30 91 3d b3 d1 ed bd
       0.004775143 -0.122739285 0.070893124 -0.116122626
000120 23 97 a1 3d e8 a9 89 3e 87 3f 30 bd c3 fb 04 3e
       0.07890155 0.2688744 -0.043029334 0.12986664
000130 b7 52 aa 3c 71 48 54 3e d4 07 e4 3c e8 59 c0 bd
       0.020791395 0.20730759 0.027835764 -0.09392148
000140 fd e3 0e 3e bc 85 1e 3e 32 18 27 be fc ff 29 be
       0.13954158 0.15480703 -0.16317824 -0.16601557
000150 cd de c1 3d cd bc 3d be 56 a8 ee 3d 11 de 65 3e
       0.09466324 -0.18529053 0.11653201 0.22447993
000160 b2 1c b2 bd eb d9 95 3e 4d 42 8f 3d 31 e1 39 be
       -0.086968794 0.2926782 0.06995068 -0.1815231
000170 fe ba 8d 3c 8b 5f a3 be 57 ee 76 3e 67 20 d5 bd
       0.017301079 -0.3190883 0.24114357 -0.10406571
000180 8d 93 95 3e d4 36 8e 3e 75 66 de bd 4f 34 bb 3e
       0.29214135 0.27776206 -0.10859386 0.36563346
000190 e3 95 dd bd 5a 1c 73 be da 90 62 3e 54 0a 63 bd
       -0.10819604 -0.23741284 0.22125569 -0.05542977
0001a0 ee 88 49 bd 35 07 e6 bd 12 5e 9e 3e d9 3d e7 3d
       -0.049202852 -0.112318434 0.30931145 0.112910934
0001b0 2c 67 d1 bd c3 02 d4 bc 55 20 a5 be 62 60 a5 3d
       -0.102247566 -0.025880223 -0.3225123 0.08075024
0001c0 7f 88 24 3e fd d6 16 be 81 2f 64 be 44 fb 88 be
       0.16067694 -0.14730449 -0.22283746 -0.267542
0001d0 38 77 99 bd d3 2d 5b 3e a3 0e 04 be f7 93 ca bd
       -0.07493442 0.214042 -0.12896208 -0.09891503
0001e0 f2 85 96 3e 6a b0 35 be af 6a 1c bd ef d7 5f bd
       0.29399067 -0.17743078 -0.03818768 -0.05464929
0001f0 2c 55 30 bb 7d 32 d7 bb 1b ac 71 be d1 76 e7 bc
       -0.0026906235 -0.006567298 -0.2360081 -0.028254898
000200 6f 85 87 3d e5 8b 93 bd ae 4a 69 be 38 be 67 3e
       0.06617247 -0.07204417 -0.22782394 0.22631156
000210 0e 5a d7 bd 48 4b 92 bc 9b c1 9a bd ef d0 8d 3d
       -0.105152234 -0.017858163 -0.075564586 0.069246165
000220 37 d2 2e be e6 4b 3c be 5d 65 b7 3d b9 2b 7c be
       -0.17072378 -0.18388328 0.089548804 -0.24626054
000230 91 37 68 3d 58 8e e8 3d cd f0 00 be 49 aa 60 be
       0.056693617 0.11355275 -0.12591858 -0.21939959
000240 98 a6 73 3d 39 8e 38 bd bd 80 60 bc 2c c7 26 be
       0.059485048 -0.04505751 -0.013702569 -0.16286916
000250 f5 87 b1 bd 17 d7 28 3e 76 8b 8e be e2 81 41 3e
       -0.0866851 0.164883 -0.27840775 0.18897203
000260 12 88 32 bd e4 81 27 3d 55 76 79 3c 8d 24 89 be
       -0.043586798 0.040895358 0.015225966 -0.267857
000270 88 a3 a0 3a 7c 2b 4d bc 97 d0 b5 be d8 b1 4f 3d
       0.0012255767 -0.0125225745 -0.35510704 0.050706714
000280 78 76 ad be b2 f2 11 3d 54 d1 31 3d bf 44 35 be
       -0.33879447 0.035631843 0.04341252 -0.17702006
000290 ee e0 8b be 93 09 26 3c 2d 15 43 bd 66 f2 e7 3d
       -0.27320045 0.010134119 -0.047627617 0.11325531
0002a0 e6 18 ff 3d e0 44 03 3e 20 30 00 bd a9 2a 25 be
       0.12455921 0.12819242 -0.031295896 -0.16129555
0002b0 db 12 2c 3e ca f8 96 3e c1 d0 8e be d8 72 92 3d
       0.16804068 0.29486686 -0.27893642 0.07150811
0002c0 d1 20 fc bb 89 aa ce bd f3 66 4d 3e e1 68 11 3d
       -0.0076943417 -0.10091121 0.20058803 0.03550041
0002d0 42 fe 4a bd 5f 64 24 3c 73 da 3a 3c b4 f6 3e 3e
       -0.049558885 0.010033696 0.011404621 0.18648797
0002e0 34 df d4 bd 08 51 14 bd 7e 42 44 bd 71 8c c3 3d
       -0.10394135 -0.03621009 -0.047914974 0.095482714
0002f0 68 d4 c7 3c 12 0f ba be 7e 83 db 3d 78 82 b6 3e
       0.024393275 -0.36339623 0.107184395 0.35646415
000300 ff fa cd 3e bd 5c a8 3d e5 95 d7 3d 0f cb b2 be
       0.40230557 0.082208134 0.10526637 -0.34920546
000310 75 15 21 3e c2 84 2f be 67 8b 15 3e 36 52 02 be
       0.15730841 -0.17140487 0.14603959 -0.12726673
000320 9d 75 8c 3e 19 9f 2d 3e 71 1f 02 3d 6f d1 3c be
       0.27433482 0.16955222 0.031768266 -0.18439268
000330 f4 bf 4b 3e 05 6a 2f be a0 70 a1 be 59 1b 03 be
       0.19897443 -0.17130287 -0.3153124 -0.12803401
000340 92 3c cd 3d bc 91 71 be 50 11 f3 3b cc d5 2b 3e
       0.100213185 -0.2359075 0.0074178353 0.16780776
000350 08 5e 4b 3d 1d 98 89 be ff bf 85 bd b0 68 8b be
       0.049650222 -0.26873866 -0.06530761 -0.27228308
000360 23 a7 a4 be b0 bf 05 3e 82 fb 81 3d c9 c0 12 be
       -0.32158765 0.13061404 0.063467994 -0.14331354
000370 58 9a 48 be 84 58 21 bc 37 9c c5 3d 03 6c 18 bd
       -0.19590127 -0.009847764 0.09648936 -0.037212383
000380 ad 0a 48 3e fc 59 22 3d 73 f2 35 be 23 97 e1 be
       0.19535322 0.039636597 -0.17768268 -0.4406062
000390 c8 93 3a 3e 98 6c a4 be 60 bd e8 bc 8e f7 fa bd
       0.18220437 -0.321141 -0.028410614 -0.122542486
0003a0 d8 f3 7c 3e 26 bb 1a bd 09 ce 7b be 6b 70 a9 3e
       0.24702394 -0.037776135 -0.24590315 0.3309358
0003b0 a2 45 03 be 7c 18 35 be 67 ad 31 be 32 1e 8a 3e
       -0.12819532 -0.17685121 -0.17351304 0.26976162
0003c0 bb ac 5a be 02 3d de be 6c f9 e8 3d 5a b8 2b be
       -0.21354954 -0.4340592 0.113756984 -0.16769543
0003d0 a5 7b 9f 3d b5 bf 86 bd 5f 09 55 be 20 48 25 be
       0.07787255 -0.06579534 -0.20804356 -0.16140795
0003e0 aa a0 bc 3d 1b b2 90 be c1 c2 4f be 73 1e 8b be
       0.09210332 -0.28260884 -0.20289136 -0.27171668
0003f0 56 0e b6 be a4 d1 72 3e e2 28 1b 3e 66 f1 38 3e
       -0.35557812 0.23712784 0.15152314 0.18060836

arith.constant4 f4 [8, 25088]
000000 2b 04 00 bd c1 42 a4 3c 50 7d 01 be c9 0b 78 3d
       -0.031253975 0.020051362 -0.12645459 0.060558114
000010 84 3c 6c 3c 5b cb 38 3c 5c 40 3b be 92 f5 9d 3d
       0.014418725 0.0112789525 -0.1828627 0.077128544
000020 c1 de 90 ba 53 5f ef bc 13 1a 5d bd 94 63 79 bd
       -0.0011052714 -0.029220259 -0.053979944 -0.06088598
000030 4e c4 5f 3c de 0a 40 bd dc f0 9e bc d2 46 84 bd
       0.0136576425 -0.046885364 -0.01940196 -0.064588204
000040 67 64 cc bb 93 20 4d 3d 98 1a 76 bc 46 51 c5 bd
       -0.006237555 0.050079893 -0.015020989 -0.09634642
000050 7e b8 72 ba e2 73 21 bd d2 be ef bc 99 6e 07 bd
       -0.0009259059 -0.039417155 -0.029265795 -0.03306446
000060 51 81 de bd fe 79 7c bd d7 19 41 bb ab 39 ab bd
       -0.10864509 -0.06163978 -0.0029464865 -0.08360609
000070 e0 ea 98 3c 66 af 88 3d e7 ca 8e 3c 29 36 b7 bd
       0.018666685 0.066740796 0.017430736 -0.08945877
000080 59 39 0d bd d2 2d 78 bd 24 4e 7e bd 29 ae 59 3d
       -0.03447852 -0.060590573 -0.06208624 0.053144608
000090 3a a0 ce 3b 4d b8 ab 39 ab f4 aa bd c1 a3 df bc
       0.0063057216 0.00032752976 -0.08347448 -0.027299764
0000a0 75 03 bb bd f3 e7 9c bd ed 2b f8 bd 7f 32 93 3b
       -0.09131519 -0.07661428 -0.12117753 0.0044921036
0000b0 60 e3 b1 bd 90 8e 03 bd 2a 63 df bd 10 48 93 bc
       -0.086859465 -0.03211838 -0.10907586 -0.017978698
0000c0 82 8b ba bd aa df fc ba e8 54 a8 bc ff 44 d1 bd
       -0.0910864 -0.0019292731 -0.020548299 -0.10218238
0000d0 85 27 d6 3c d0 a5 8d 3d 3d 1b ea bc 9b 51 0f bd
       0.026141891 0.06916392 -0.028577441 -0.034989934
0000e0 7e 20 bf bd 4a 7d 2b 3d 5b bb d3 bc c0 39 14 be
       -0.09332369 0.04186753 -0.025846174 -0.14475155
0000f0 f5 5a e3 bc 65 34 6e bd 72 de 9e 3c 56 f7 c8 bc
       -0.027753333 -0.058155436 0.01939318 -0.024532001
000100 ea d9 4f bd 53 e5 1c bb 24 82 f6 bd 33 63 b0 3b
       -0.05074493 -0.0023940399 -0.12036541 0.005382919
000110 06 9e bc bc ad dc 19 bc 61 92 a1 bd c0 38 ee b9
       -0.02302457 -0.009390992 -0.07889248 -0.0004543718
000120 9f 3a cd bd 75 85 1c bc af 3d 19 bd 29 77 1c 3d
       -0.10020947 -0.009553303 -0.03741234 0.038199577
000130 14 95 25 bd 9e 46 de bb e3 40 0a be 9f b7 23 bd
       -0.040425375 -0.0067833206 -0.13501315 -0.039970037
000140 e9 dc ba bd dd cd 8a bd 66 45 71 bc 97 9a ae bd
       -0.091241665 -0.067775466 -0.0147260185 -0.085255794
000150 c6 ff 65 bc d4 db 8c 3d f7 c2 36 3d fe 1f ff bc
       -0.014038032 0.068778664 0.044619527 -0.031143185
000160 23 a9 58 bb 6d 6a 70 3d 15 59 0f bd 29 16 f9 bd
       -0.0033059798 0.058695246 -0.034997065 -0.1216243
000170 c7 d1 66 bd cd 5c 34 bd a1 78 80 bc 6c 9d 9d 3c
       -0.056352403 -0.044033814 -0.01568252 0.019240104
000180 dc 0c 6b bc c8 68 0c 3c cc 07 2e bd a3 7a 6f 3c
       -0.014346328 0.008569904 -0.042487904 0.014616641
000190 1c b9 9f bb 0a 1a a6 bc 78 f2 9c bd 41 91 c3 3c
       -0.0048743617 -0.020276088 -0.07663435 0.023872973
0001a0 d4 aa a4 bd 8b f9 25 bd f7 df 88 3d 86 73 be bb
       -0.080403954 -0.040521186 0.06683343 -0.0058121113
0001b0 2a 9b b4 bd 15 3e bf bc d8 29 03 be 11 24 ce bc
       -0.08818658 -0.023345033 -0.12808931 -0.025163682
0001c0 fa 2f 12 bd a5 84 f2 3b b0 eb dd bc d3 10 88 bd
       -0.035690285 0.0074010664 -0.027089924 -0.06643834
0001d0 e5 3f 09 3c d8 c8 c7 3d d0 d9 f5 ba 11 a0 02 bd
       0.00837705 0.09755105 -0.001875693 -0.031890932
0001e0 8f f2 42 bc ea 6c 31 3d 00 6a fa bc c5 ec 4d bd
       -0.011898651 0.04331676 -0.030568123 -0.05027463
0001f0 17 5d 96 bd 9a ec 90 3c f9 3e 20 bc 68 d5 b3 ba
       -0.07341974 0.017690945 -0.009780639 -0.0013720216
000200 21 e2 92 3a 57 68 a0 bc ea 37 83 bd 73 8a 97 3d
       0.0011206308 -0.019581003 -0.06407149 0.07399454
000210 c4 67 9a 3b 54 7e cf 3c b5 d3 8f bd 31 f2 4f 3d
       0.004712077 0.025328793 -0.07022802 0.05076808
000220 26 7c 8c bd 9b ff ee bc 9a 53 b6 bb 5b f2 96 3c
       -0.06859617 -0.029174617 -0.0055641653 0.018426111
000230 44 ad 7b bd 6f 6e 09 3d 82 b3 1a be fb 62 41 bc
       -0.061444536 0.033552583 -0.1510754 -0.011803384
000240 e8 ca 59 bd 7c fe 27 3b fe b6 c6 3c 36 a2 f8 bc
       -0.053172022 0.0025633862 0.02425718 -0.030350786
000250 7e 10 b9 ba 2c 2f 83 3d 1c 5f 0a 3c 11 ab 8e ba
       -0.0014119295 0.06405482 0.008445527 -0.0010884722
000260 31 a7 5c bd 95 fe b6 3b 18 3e 80 bb 67 86 06 be
       -0.053870384 0.0055845478 -0.003913652 -0.13137208
000270 63 0e 78 bd 05 80 12 3d ea 31 98 bc 29 31 7e 3d
       -0.060560595 0.03576662 -0.018578488 0.0620586
000280 b9 19 82 3d 56 0d 17 bd aa 10 6b bd ac e3 a1 3d
       0.063525625 -0.036877953 -0.05738894 0.07904753
000290 35 7b d9 3c ec 69 94 3d 7a 37 98 bd b2 41 5b 3a
       0.026548008 0.072467655 -0.07432456 0.00083639764
0002a0 2c d4 96 bd a1 d8 6b bd 86 e1 9b 3c e4 8c 0b bc
       -0.07364687 -0.05757964 0.019028436 -0.008517478
0002b0 cf 0a 94 bd c2 02 21 bd 97 ca 2d be 71 95 0d 3d
       -0.07228624 -0.03930927 -0.16971813 0.034566347
0002c0 a2 5b 2b 3d b7 87 99 bd fd 7d 0f 3c 9a 59 c7 bd
       0.041835435 -0.07496589 0.008758065 -0.09733887
0002d0 0c 9d 43 3c 6b 04 ac 3b ca bc 63 3d af ee fc 3b
       0.011939298 0.00524955 0.055599965 0.007718883
0002e0 b1 05 17 bd fc 39 e7 bb 5d 01 ad bc 6e 77 e6 bd
       -0.036870662 -0.007056473 -0.021118814 -0.11253248
0002f0 cd 0c f8 bb 91 c5 9b ba 16 4f 4c 3c df 1e 16 bb
       -0.0075698853 -0.0011884441 0.012470027 -0.0022906584
000300 15 16 ee 3d f7 03 2e 3b a6 63 16 be b7 e7 e9 3c
       0.116253056 0.0026552656 -0.1468645 0.028552873
000310 1a 9f 12 3b 78 98 bb 3d f3 07 d7 bd d4 03 8c bd
       0.0022372664 0.091599405 -0.10499563 -0.06836668
000320 93 ba 38 bd 90 af 6c bd 4c 54 f2 bd 0b 45 b1 bd
       -0.045099806 -0.057784617 -0.118324846 -0.08655747
000330 b4 5b e1 bd 46 a3 eb 3a 6c 3f 94 bd 8c 69 06 bd
       -0.11003819 0.0017977736 -0.07238659 -0.0328155
000340 e3 b2 b3 3c d6 12 f3 3c fe a8 f2 bb 9c ff f2 bd
       0.021935886 0.029672068 -0.0074053993 -0.1186516
000350 9c 1c a3 bc b8 d7 03 3e f7 1a a3 bd 91 eb 0f bc
       -0.019911103 0.12875259 -0.079641275 -0.008784191
000360 67 91 0f be 2d 37 ae 3b 31 5f 1d bd 5b 4a 74 bc
       -0.1402031 0.005316636 -0.03842086 -0.014910306
000370 35 c3 2c 3d d5 fa 6d bd ed 80 a9 3c 70 ea d6 3c
       0.04217835 -0.05810054 0.02069136 0.026234835
000380 ee 1a 25 bc f9 cd 0a bc 84 f3 54 be d0 33 1f 3d
       -0.010077221 -0.008471959 -0.20796019 0.03886777
000390 65 60 3a 3b 88 03 2a 3d 1f 25 86 bd 32 7f 40 bd
       0.0028438803 0.041507274 -0.06550049 -0.046996303
0003a0 9a b8 f3 3c e2 be 05 bd cc 6b 82 bd 17 a9 93 bd
       0.02975111 -0.032652743 -0.06368217 -0.07209986
0003b0 ee a9 a2 bd 9d c0 66 bc 0d 01 5e 3c 3f c1 2f bd
       -0.07942568 -0.0140840085 0.013550055 -0.042908903
0003c0 58 78 e3 3c 25 da f3 3c 8c 5a fa 3c b8 8f fe bd
       0.027767345 0.029767105 0.030560754 -0.12429756
0003d0 00 7d 86 3c b4 27 4f bc 4b f7 96 bd 9d d1 1f bd
       0.016417027 -0.012643743 -0.07371386 -0.039018262
0003e0 b2 03 92 bd 25 a9 0c 3d 8d 2b 69 bc ca b7 a1 bd
       -0.07129611 0.034340996 -0.014231575 -0.07896383
0003f0 a3 1e ec 3b 30 72 47 3c 24 7b c5 3c 64 e6 90 bd
       0.0072058006 0.0121732205 0.02410657 -0.070751935

arith.constant5 f4 [8]
000000 ee 54 9d bd 54 a4 4b bd d9 dd 6e 3c dc c3 6f 3d
       -0.07682215 -0.049717262 0.01457926 0.058536395
000010 27 a9 2d 3b fa 0e c3 bc 1b d7 6f bd 1f e4 2f 3e
       0.0026498528 -0.023810852 -0.05855475 0.17176865

sequential_3_1/conv2d_3_1/convolution f4 [8, 5, 5, 3]
000000 f4 90 39 be 31 47 61 3d 00 c0 05 3e fb b7 2e be
       -0.18121701 0.054999534 0.13061523 -0.1706237
000010 01 eb 88 bd d2 e1 2f 3e 11 6c 1b 3d e3 ce 09 3d
       -0.066854484 0.17175987 0.037944857 0.03364457
000020 bb c9 d4 bc 59 bf a0 3d d6 85 96 3c 1a 96 22 3e
       -0.025975099 0.07848997 0.018374365 0.15877572
000030 16 d9 d4 be a0 e9 4e 3e 5d 76 3f 3e 81 13 cb bd
       -0.41571873 0.20206308 0.18697496 -0.099158294
000040 49 b4 0f 3e 3b 84 a4 3e d0 20 ef 3c ef bf 2b 3d
       0.14033617 0.32132134 0.02919045 0.04193109
000050 29 a4 a1 3e 17 51 00 3e 34 39 d9 3d 83 9a 8f 3e
       0.31570557 0.12530933 0.10606614 0.2804757
000060 ef 7e d6 3d 0a a1 95 3d f3 6d 04 be 3d 6a 2e be
       0.104734294 0.073061064 -0.12932567 -0.17032714
000070 da 8a a2 bd d4 3f 55 be 2a 02 d6 3b 7a 6c 6e bd
       -0.0793664 -0.2082513 0.0065310197 -0.05820892
000080 7f c6 7b 3e 8d 81 d2 bd 30 20 35 3e 2d c9 87 3e
       0.24587439 -0.10278616 0.1768806 0.26520672
000090 68 f8 16 bd dd 35 f5 bd da 44 ad 3e 99 77 c3 bc
       -0.036857992 -0.11973164 0.33841592 -0.02386074
0000a0 56 46 a1 be c8 e8 a5 3d f5 0b 85 be 82 aa 77 3d
       -0.31498975 0.0810104 -0.25985685 0.060465343
0000b0 e7 df 51 bd 21 39 a7 be 9b e4 1c be b8 3e 7f 3e
       -0.05123892 -0.32660773 -0.15321581 0.24926269
0000c0 30 6e 97 3c 37 9d ba bd 6f 3d b2 3e 11 51 8e bc
       0.018485159 -0.091120176 0.34812495 -0.01737264
0000d0 e9 80 ca bd 6d eb 3c 3c 7e be 8f be 15 aa 99 be
       -0.09887869 0.011530739 -0.28075022 -0.30012575
0000e0 5c f5 6f 3d c5 12 cb be 7f cc 22 be 57 83 64 bd
       0.058583602 -0.39662758 -0.15898322 -0.055789318
0000f0 f3 9e 41 3e 84 ee 34 bd 2c bd 0c 3e 7f da 73 be
       0.1890829 -0.04417278 0.13744038 -0.23813818
000100 ce 92 da 3d 5c cd 2f 3e 07 35 b2 be 93 21 b1 3e
       0.10672532 0.17168182 -0.34806082 0.34595928
000110 c7 8b bb 3e 25 67 bf bd df 3a 5d be 88 92 9f 3d
       0.3663008 -0.09345845 -0.21604489 0.077916205
000120 ea d7 59 be f1 99 35 3e 24 59 81 bd eb f1 42 be
       -0.21273771 0.17734505 -0.0631583 -0.19037597
000130 6b bb 98 3e be 7a 58 3b e5 cd 51 bd 68 ab 2f 3e
       0.2983049 0.0033032144 -0.051221747 0.1715523
000140 35 ec 40 be 85 36 80 bd c1 1c d1 3d 3c 41 04 3e
       -0.18840106 -0.06260399 0.102105625 0.1291551
000150 3a cc f0 3c a6 0c 1c 3c a6 43 3b 3e f1 22 a9 3e
       0.029394258 0.0095245 0.18287525 0.3303447
000160 9d 83 54 3e 1e 9e 3c be d7 e8 8d 3e 6d 0d 9b 3e
       0.20753331 -0.18419692 0.27716705 0.3028368
000170 37 16 8a 3e d4 e6 c6 bd 2f ec 28 bd ba 5f 01 be
       0.26970074 -0.09711996 -0.041240867 -0.12634173
000180 91 53 8f 3d 9c 5c 91 be 46 f0 37 bd f7 62 83 3e
       0.06998361 -0.28390968 -0.044906877 0.25661442
000190 af e6 7e 3e 5e 94 9c 3e b0 12 a7 3e 8e 99 93 3b
       0.24892686 0.30581945 0.32631445 0.004504389
0001a0 c7 24 9a be 31 30 20 be 60 1c 08 3d 7c 93 57 bd
       -0.30106184 -0.15643384 0.033230186 -0.052630886
0001b0 c3 86 3d 3d f3 f7 93 3c 94 6e 6d be 5a 14 a4 be
       0.046271097 0.018062567 -0.23186713 -0.32046777
0001c0 89 e0 37 3e e5 dc ba 3e bf b6 31 be f9 2b 52 bd
       0.17956747 0.36496654 -0.17354868 -0.051311467
0001d0 c8 43 9a be 70 68 6d 3e 97 ea 16 3e e0 6c 39 be
       -0.30129838 0.23184371 0.14737926 -0.18107939
0001e0 bd 02 47 be 82 63 37 be 1e 97 39 3e 9d b2 13 be
       -0.19434638 -0.17909053 0.18124053 -0.14423604
0001f0 91 2d fa 3d c7 e0 19 3e 4e 2e 68 be bb b8 37 be
       0.12215722 0.15027152 -0.22673914 -0.17941563
000200 73 31 3d be 67 f9 68 3e 75 1d f8 bc b5 ab d3 3b
       -0.18475895 0.2275139 -0.030287484 0.006459678
000210 ed aa b9 3d cf 6f 84 3d 05 4a 45 be d0 11 ca bc
       0.09065805 0.06466638 -0.19266517 -0.024666697
000220 51 55 74 3e 0e bf 67 3e aa 97 89 bd a1 81 d1 3c
       0.2386067 0.22631475 -0.06718381 0.025574507
000230 87 7c 65 3e 4d f4 7f be a0 cb 8b be f9 8d 30 be
       0.22410785 -0.24995537 -0.2730379 -0.17241658
000240 3f ee c2 3d b5 0a a2 ba 94 9f 9e 3e 5d 32 d6 3d
       0.09518098 -0.001236281 0.30981123 0.10458825
000250 95 84 0d be e9 96 13 bc 00 9f dc 3d f8 71 15 3c
       -0.13820107 -0.009008148 0.10772514 0.009121411
000260 c0 f7 3e be ee 14 f0 bd f6 df a7 be 87 d5 94 bd
       -0.18649197 -0.11722742 -0.32788056 -0.072672896
000270 31 bb 3d 3e e0 57 25 be ed fb c8 bd bd 24 37 3e
       0.18528439 -0.16146803 -0.09813676 0.17885108
000280 6a 44 bf bd 7b 19 2e bd 75 95 d7 3d 37 86 50 be
       -0.09339221 -0.04250477 0.105265535 -0.20363699
000290 97 88 15 3e bc 4c 7d 3d 99 e3 b6 be 32 8e f3 3b
       0.14602886 0.061840758 -0.35720518 0.0074327225
0002a0 27 ed a9 3d b9 0c 42 bc a7 5c c5 be 4c 4e 97 be
       0.08297186 -0.011843854 -0.3854725 -0.29551923
0002b0 77 e7 15 be 4e 3d 5d 3c 47 49 02 be 22 4d 35 be
       -0.14639078 0.013503386 -0.12723266 -0.17705205
0002c0 6c 1e 2a be c1 de 45 be 03 d4 02 be ac cd 25 3e
       -0.16613168 -0.19323255 -0.12776189 0.16191739
0002d0 60 15 3c be a6 3c 38 3d 03 f6 1b 3e ae 1e 73 3e
       -0.18367529 0.044979714 0.15230565 0.23742172
0002e0 33 86 96 3d 89 a5 c5 3c a9 de 55 bc a0 89 d8 3c
       0.07349815 0.024126785 -0.013053575 0.026432812
0002f0 e6 4a a0 be aa a3 19 be c6 51 1e be 75 63 9a 3c
       -0.31307143 -0.15003839 -0.15460882 0.018846253
000300 56 f8 80 be dc b4 26 be 63 89 d0 3d c0 0e 88 3e
       -0.25189465 -0.1627993 0.101824544 0.26573753
000310 05 1a d7 3d 8a 6d 79 bd a4 c4 b7 3e 33 45 08 3d
       0.1050301 -0.06089548 0.35892212 0.03326912
000320 d8 8c 17 3e 42 a6 ea 3c 4c b7 23 bd 58 77 89 bd
       0.14799821 0.028643731 -0.039969727 -0.06712216
000330 36 15 70 bd be 27 34 bc 88 45 8e be 2a f8 aa 3c
       -0.05861398 -0.010995803 -0.27787423 0.020870287
000340 64 95 8c 3d f5 7d 71 be 72 02 17 3e 75 bb 13 3e
       0.068644315 -0.23583205 0.14747027 0.14426978
000350 1d e9 58 bd 9b 77 84 3e 81 69 71 be b6 0a f9 bd
       -0.05295669 0.25872502 -0.23575403 -0.12160246
000360 cc 20 ba b9 f3 f4 d3 3d fa 3a 82 bc 8d b6 cc be
       -0.0003550112 0.10349455 -0.015897263 -0.39983025
000370 fa 00 c1 3d c7 c5 26 be 47 de e5 bd f9 c2 b5 bc
       0.094240144 -0.16286384 -0.11224037 -0.022187697
000380 cd 6d 91 be e9 c6 c0 3e 13 60 20 3e ec 72 ff bc
       -0.28404084 0.37651756 0.1566165 -0.031182729
000390 00 cb 1b be c6 d8 a8 3d 89 ce 98 be d2 92 87 3e
       -0.15214157 0.08244471 -0.29845074 0.26479203
0003a0 fa cb 75 be 44 14 8d bd c8 ec db bd 4c 3a 05 bd
       -0.24003592 -0.06888631 -0.10738522 -0.0325263
0003b0 16 47 89 3e e4 c3 14 3e e6 9b 43 bd 69 78 8e bc
       0.26812047 0.14527851 -0.0477561 -0.0173914
0003c0 41 b7 1b 3e c4 82 86 be 09 4e 66 3e 60 bb 59 3e
       0.15206625 -0.2627164 0.22490706 0.21262884
0003d0 cc cf c9 bd 8b fc 6e be 5d 07 8f 3e c5 f2 18 3d
       -0.09854087 -0.23338525 0.27935305 0.037340898
0003e0 ef 7b 0f 3e be 24 c3 3e 92 d4 0d 3e 8d 09 7b be
       0.1401212 0.3811397 0.1385062 -0.24515362
0003f0 13 d5 ed 3e e6 36 3e be 0c ec 05 be 9a 55 20 3e
       0.46451625 -0.1857563 -0.13078326 0.15657654

sequential_3_1/conv2d_3_1/Relu;sequential_3_1/conv2d_3_1/BiasAdd;sequential_3_1/conv2d_3_1/convolution; f4 [8]
000000 c1 84 b1 3d 43 38 30 be ee 43 c0 bc 52 f9 75 bc
       0.08667899 -0.17208962 -0.023469891 -0.015013056
000010 8f 39 38 bd ff 2d de bc b4 21 6e bb af e5 28 be
       -0.044976767 -0.027121542 -0.0036336007 -0.16493867
